…
[93m [WARNING] [0m using untested triton version (2.0.0), only 1.0.0 is known to be compatible
[93m [WARNING] [0m sparse_attn requires a torch version >= 1.5 and < 2.0 but detected 2.0
[93m [WARNING] [0m using untested triton version (2.0.0), only 1.0.0 is known to be compatible
[93m [WARNING] [0m sparse_attn requires a torch version >= 1.5 and < 2.0 but detected 2.0
[93m [WARNING] [0m using untested triton version (2.0.0), only 1.0.0 is known to be compatible
1281167
Number of GPUs available: 4
GPU 0: NVIDIA RTX A6000
GPU 1: NVIDIA RTX A6000
GPU 2: NVIDIA RTX A6000
GPU 3: NVIDIA RTX A6000
Unet(
  (init_conv): Conv2d(3, 64, kernel_size=(7, 7), stride=(1, 1), padding=(3, 3))
  (time_mlp): Sequential(
    (0): SinusoidalPosEmb()
    (1): Linear(in_features=64, out_features=256, bias=True)
    (2): GELU(approximate='none')
    (3): Linear(in_features=256, out_features=256, bias=True)
  )
  (downs): ModuleList(
    (0): ModuleList(
      (0-1): 2 x ResnetBlock(
        (mlp): Sequential(
          (0): SiLU()
          (1): Linear(in_features=256, out_features=128, bias=True)
        )
        (block1): Block(
          (proj): Conv2d(64, 64, kernel_size=(3, 3), stride=(1, 1), padding=(1, 1))
          (norm): RMSNorm()
          (act): SiLU()
          (dropout): Dropout(p=0.0, inplace=False)
        )
        (block2): Block(
          (proj): Conv2d(64, 64, kernel_size=(3, 3), stride=(1, 1), padding=(1, 1))
          (norm): RMSNorm()
          (act): SiLU()
          (dropout): Dropout(p=0.0, inplace=False)
        )
        (res_conv): Identity()
      )
      (2): LinearAttention(
        (norm): RMSNorm()
        (to_qkv): Conv2d(64, 384, kernel_size=(1, 1), stride=(1, 1), bias=False)
        (to_out): Sequential(
          (0): Conv2d(128, 64, kernel_size=(1, 1), stride=(1, 1))
          (1): RMSNorm()
        )
      )
      (3): Sequential(
        (0): Rearrange('b c (h p1) (w p2) -> b (c p1 p2) h w', p1=2, p2=2)
        (1): Conv2d(256, 64, kernel_size=(1, 1), stride=(1, 1))
      )
    )
    (1): ModuleList(
      (0-1): 2 x ResnetBlock(
        (mlp): Sequential(
          (0): SiLU()
          (1): Linear(in_features=256, out_features=128, bias=True)
        )
        (block1): Block(
          (proj): Conv2d(64, 64, kernel_size=(3, 3), stride=(1, 1), padding=(1, 1))
          (norm): RMSNorm()
          (act): SiLU()
          (dropout): Dropout(p=0.0, inplace=False)
        )
        (block2): Block(
          (proj): Conv2d(64, 64, kernel_size=(3, 3), stride=(1, 1), padding=(1, 1))
          (norm): RMSNorm()
          (act): SiLU()
          (dropout): Dropout(p=0.0, inplace=False)
        )
        (res_conv): Identity()
      )
      (2): LinearAttention(
        (norm): RMSNorm()
        (to_qkv): Conv2d(64, 384, kernel_size=(1, 1), stride=(1, 1), bias=False)
        (to_out): Sequential(
          (0): Conv2d(128, 64, kernel_size=(1, 1), stride=(1, 1))
          (1): RMSNorm()
        )
      )
      (3): Sequential(
        (0): Rearrange('b c (h p1) (w p2) -> b (c p1 p2) h w', p1=2, p2=2)
        (1): Conv2d(256, 128, kernel_size=(1, 1), stride=(1, 1))
      )
    )
    (2): ModuleList(
      (0-1): 2 x ResnetBlock(
        (mlp): Sequential(
          (0): SiLU()
          (1): Linear(in_features=256, out_features=256, bias=True)
        )
        (block1): Block(
          (proj): Conv2d(128, 128, kernel_size=(3, 3), stride=(1, 1), padding=(1, 1))
          (norm): RMSNorm()
          (act): SiLU()
          (dropout): Dropout(p=0.0, inplace=False)
        )
        (block2): Block(
          (proj): Conv2d(128, 128, kernel_size=(3, 3), stride=(1, 1), padding=(1, 1))
          (norm): RMSNorm()
          (act): SiLU()
          (dropout): Dropout(p=0.0, inplace=False)
        )
        (res_conv): Identity()
      )
      (2): LinearAttention(
        (norm): RMSNorm()
        (to_qkv): Conv2d(128, 384, kernel_size=(1, 1), stride=(1, 1), bias=False)
        (to_out): Sequential(
          (0): Conv2d(128, 128, kernel_size=(1, 1), stride=(1, 1))
          (1): RMSNorm()
        )
      )
      (3): Sequential(
        (0): Rearrange('b c (h p1) (w p2) -> b (c p1 p2) h w', p1=2, p2=2)
        (1): Conv2d(512, 256, kernel_size=(1, 1), stride=(1, 1))
      )
    )
    (3): ModuleList(
      (0-1): 2 x ResnetBlock(
        (mlp): Sequential(
          (0): SiLU()
          (1): Linear(in_features=256, out_features=512, bias=True)
        )
        (block1): Block(
          (proj): Conv2d(256, 256, kernel_size=(3, 3), stride=(1, 1), padding=(1, 1))
          (norm): RMSNorm()
          (act): SiLU()
          (dropout): Dropout(p=0.0, inplace=False)
        )
        (block2): Block(
          (proj): Conv2d(256, 256, kernel_size=(3, 3), stride=(1, 1), padding=(1, 1))
          (norm): RMSNorm()
          (act): SiLU()
          (dropout): Dropout(p=0.0, inplace=False)
        )
        (res_conv): Identity()
      )
      (2): Attention(
        (norm): RMSNorm()
        (attend): Attend(
          (attn_dropout): Dropout(p=0.0, inplace=False)
        )
        (to_qkv): Conv2d(256, 384, kernel_size=(1, 1), stride=(1, 1), bias=False)
        (to_out): Conv2d(128, 256, kernel_size=(1, 1), stride=(1, 1))
      )
      (3): Conv2d(256, 512, kernel_size=(3, 3), stride=(1, 1), padding=(1, 1))
    )
  )
  (ups): ModuleList(
    (0): ModuleList(
      (0-1): 2 x ResnetBlock(
        (mlp): Sequential(
          (0): SiLU()
          (1): Linear(in_features=256, out_features=1024, bias=True)
        )
        (block1): Block(
          (proj): Conv2d(768, 512, kernel_size=(3, 3), stride=(1, 1), padding=(1, 1))
          (norm): RMSNorm()
          (act): SiLU()
          (dropout): Dropout(p=0.0, inplace=False)
        )
        (block2): Block(
          (proj): Conv2d(512, 512, kernel_size=(3, 3), stride=(1, 1), padding=(1, 1))
          (norm): RMSNorm()
          (act): SiLU()
          (dropout): Dropout(p=0.0, inplace=False)
        )
        (res_conv): Conv2d(768, 512, kernel_size=(1, 1), stride=(1, 1))
      )
      (2): Attention(
        (norm): RMSNorm()
        (attend): Attend(
          (attn_dropout): Dropout(p=0.0, inplace=False)
        )
        (to_qkv): Conv2d(512, 384, kernel_size=(1, 1), stride=(1, 1), bias=False)
        (to_out): Conv2d(128, 512, kernel_size=(1, 1), stride=(1, 1))
      )
      (3): Sequential(
        (0): Upsample(scale_factor=2.0, mode='nearest')
        (1): Conv2d(512, 256, kernel_size=(3, 3), stride=(1, 1), padding=(1, 1))
      )
    )
    (1): ModuleList(
      (0-1): 2 x ResnetBlock(
        (mlp): Sequential(
          (0): SiLU()
          (1): Linear(in_features=256, out_features=512, bias=True)
        )
        (block1): Block(
          (proj): Conv2d(384, 256, kernel_size=(3, 3), stride=(1, 1), padding=(1, 1))
          (norm): RMSNorm()
          (act): SiLU()
          (dropout): Dropout(p=0.0, inplace=False)
        )
        (block2): Block(
          (proj): Conv2d(256, 256, kernel_size=(3, 3), stride=(1, 1), padding=(1, 1))
          (norm): RMSNorm()
          (act): SiLU()
          (dropout): Dropout(p=0.0, inplace=False)
        )
        (res_conv): Conv2d(384, 256, kernel_size=(1, 1), stride=(1, 1))
      )
      (2): LinearAttention(
        (norm): RMSNorm()
        (to_qkv): Conv2d(256, 384, kernel_size=(1, 1), stride=(1, 1), bias=False)
        (to_out): Sequential(
          (0): Conv2d(128, 256, kernel_size=(1, 1), stride=(1, 1))
          (1): RMSNorm()
        )
      )
      (3): Sequential(
        (0): Upsample(scale_factor=2.0, mode='nearest')
        (1): Conv2d(256, 128, kernel_size=(3, 3), stride=(1, 1), padding=(1, 1))
      )
    )
    (2): ModuleList(
      (0-1): 2 x ResnetBlock(
        (mlp): Sequential(
          (0): SiLU()
          (1): Linear(in_features=256, out_features=256, bias=True)
        )
        (block1): Block(
          (proj): Conv2d(192, 128, kernel_size=(3, 3), stride=(1, 1), padding=(1, 1))
          (norm): RMSNorm()
          (act): SiLU()
          (dropout): Dropout(p=0.0, inplace=False)
        )
        (block2): Block(
          (proj): Conv2d(128, 128, kernel_size=(3, 3), stride=(1, 1), padding=(1, 1))
          (norm): RMSNorm()
          (act): SiLU()
          (dropout): Dropout(p=0.0, inplace=False)
        )
        (res_conv): Conv2d(192, 128, kernel_size=(1, 1), stride=(1, 1))
      )
      (2): LinearAttention(
        (norm): RMSNorm()
        (to_qkv): Conv2d(128, 384, kernel_size=(1, 1), stride=(1, 1), bias=False)
        (to_out): Sequential(
          (0): Conv2d(128, 128, kernel_size=(1, 1), stride=(1, 1))
          (1): RMSNorm()
        )
      )
      (3): Sequential(
        (0): Upsample(scale_factor=2.0, mode='nearest')
        (1): Conv2d(128, 64, kernel_size=(3, 3), stride=(1, 1), padding=(1, 1))
      )
    )
    (3): ModuleList(
      (0-1): 2 x ResnetBlock(
        (mlp): Sequential(
          (0): SiLU()
          (1): Linear(in_features=256, out_features=128, bias=True)
        )
        (block1): Block(
          (proj): Conv2d(128, 64, kernel_size=(3, 3), stride=(1, 1), padding=(1, 1))
          (norm): RMSNorm()
          (act): SiLU()
          (dropout): Dropout(p=0.0, inplace=False)
        )
        (block2): Block(
          (proj): Conv2d(64, 64, kernel_size=(3, 3), stride=(1, 1), padding=(1, 1))
          (norm): RMSNorm()
          (act): SiLU()
          (dropout): Dropout(p=0.0, inplace=False)
        )
        (res_conv): Conv2d(128, 64, kernel_size=(1, 1), stride=(1, 1))
      )
      (2): LinearAttention(
        (norm): RMSNorm()
        (to_qkv): Conv2d(64, 384, kernel_size=(1, 1), stride=(1, 1), bias=False)
        (to_out): Sequential(
          (0): Conv2d(128, 64, kernel_size=(1, 1), stride=(1, 1))
          (1): RMSNorm()
        )
      )
      (3): Conv2d(64, 64, kernel_size=(3, 3), stride=(1, 1), padding=(1, 1))
    )
  )
  (mid_block1): ResnetBlock(
    (mlp): Sequential(
      (0): SiLU()
      (1): Linear(in_features=256, out_features=1024, bias=True)
    )
    (block1): Block(
      (proj): Conv2d(512, 512, kernel_size=(3, 3), stride=(1, 1), padding=(1, 1))
      (norm): RMSNorm()
      (act): SiLU()
      (dropout): Dropout(p=0.0, inplace=False)
    )
    (block2): Block(
      (proj): Conv2d(512, 512, kernel_size=(3, 3), stride=(1, 1), padding=(1, 1))
      (norm): RMSNorm()
      (act): SiLU()
      (dropout): Dropout(p=0.0, inplace=False)
    )
    (res_conv): Identity()
  )
  (mid_attn): Attention(
    (norm): RMSNorm()
    (attend): Attend(
      (attn_dropout): Dropout(p=0.0, inplace=False)
    )
    (to_qkv): Conv2d(512, 384, kernel_size=(1, 1), stride=(1, 1), bias=False)
    (to_out): Conv2d(128, 512, kernel_size=(1, 1), stride=(1, 1))
  )
  (mid_block2): ResnetBlock(
    (mlp): Sequential(
      (0): SiLU()
      (1): Linear(in_features=256, out_features=1024, bias=True)
    )
    (block1): Block(
      (proj): Conv2d(512, 512, kernel_size=(3, 3), stride=(1, 1), padding=(1, 1))
      (norm): RMSNorm()
      (act): SiLU()
      (dropout): Dropout(p=0.0, inplace=False)
    )
    (block2): Block(
      (proj): Conv2d(512, 512, kernel_size=(3, 3), stride=(1, 1), padding=(1, 1))
      (norm): RMSNorm()
      (act): SiLU()
      (dropout): Dropout(p=0.0, inplace=False)
    )
    (res_conv): Identity()
  )
  (final_res_block): ResnetBlock(
    (mlp): Sequential(
      (0): SiLU()
      (1): Linear(in_features=256, out_features=128, bias=True)
    )
    (block1): Block(
      (proj): Conv2d(128, 64, kernel_size=(3, 3), stride=(1, 1), padding=(1, 1))
      (norm): RMSNorm()
      (act): SiLU()
      (dropout): Dropout(p=0.0, inplace=False)
    )
    (block2): Block(
      (proj): Conv2d(64, 64, kernel_size=(3, 3), stride=(1, 1), padding=(1, 1))
      (norm): RMSNorm()
      (act): SiLU()
      (dropout): Dropout(p=0.0, inplace=False)
    )
    (res_conv): Conv2d(128, 64, kernel_size=(1, 1), stride=(1, 1))
  )
  (final_conv): Conv2d(64, 3, kernel_size=(1, 1), stride=(1, 1))
)
[2024-06-30 19:00:10,829] [INFO] [comm.py:637:init_distributed] cdb=None
1281167
Number of GPUs available: 4
GPU 0: NVIDIA RTX A6000
GPU 1: NVIDIA RTX A6000
GPU 2: NVIDIA RTX A6000
GPU 3: NVIDIA RTX A6000
1281167
Number of GPUs available: 4
GPU 0: NVIDIA RTX A6000
GPU 1: NVIDIA RTX A6000
GPU 2: NVIDIA RTX A6000
GPU 3: NVIDIA RTX A6000
Unet(
  (init_conv): Conv2d(3, 64, kernel_size=(7, 7), stride=(1, 1), padding=(3, 3))
  (time_mlp): Sequential(
    (0): SinusoidalPosEmb()
    (1): Linear(in_features=64, out_features=256, bias=True)
    (2): GELU(approximate='none')
    (3): Linear(in_features=256, out_features=256, bias=True)
  )
  (downs): ModuleList(
    (0): ModuleList(
      (0-1): 2 x ResnetBlock(
        (mlp): Sequential(
          (0): SiLU()
          (1): Linear(in_features=256, out_features=128, bias=True)
        )
        (block1): Block(
          (proj): Conv2d(64, 64, kernel_size=(3, 3), stride=(1, 1), padding=(1, 1))
          (norm): RMSNorm()
          (act): SiLU()
          (dropout): Dropout(p=0.0, inplace=False)
        )
        (block2): Block(
          (proj): Conv2d(64, 64, kernel_size=(3, 3), stride=(1, 1), padding=(1, 1))
          (norm): RMSNorm()
          (act): SiLU()
          (dropout): Dropout(p=0.0, inplace=False)
        )
        (res_conv): Identity()
      )
      (2): LinearAttention(
        (norm): RMSNorm()
        (to_qkv): Conv2d(64, 384, kernel_size=(1, 1), stride=(1, 1), bias=False)
        (to_out): Sequential(
          (0): Conv2d(128, 64, kernel_size=(1, 1), stride=(1, 1))
          (1): RMSNorm()
        )
      )
      (3): Sequential(
        (0): Rearrange('b c (h p1) (w p2) -> b (c p1 p2) h w', p1=2, p2=2)
        (1): Conv2d(256, 64, kernel_size=(1, 1), stride=(1, 1))
      )
    )
    (1): ModuleList(
      (0-1): 2 x ResnetBlock(
        (mlp): Sequential(
          (0): SiLU()
          (1): Linear(in_features=256, out_features=128, bias=True)
        )
        (block1): Block(
          (proj): Conv2d(64, 64, kernel_size=(3, 3), stride=(1, 1), padding=(1, 1))
          (norm): RMSNorm()
          (act): SiLU()
          (dropout): Dropout(p=0.0, inplace=False)
        )
        (block2): Block(
          (proj): Conv2d(64, 64, kernel_size=(3, 3), stride=(1, 1), padding=(1, 1))
          (norm): RMSNorm()
          (act): SiLU()
          (dropout): Dropout(p=0.0, inplace=False)
        )
        (res_conv): Identity()
      )
      (2): LinearAttention(
        (norm): RMSNorm()
        (to_qkv): Conv2d(64, 384, kernel_size=(1, 1), stride=(1, 1), bias=False)
        (to_out): Sequential(
          (0): Conv2d(128, 64, kernel_size=(1, 1), stride=(1, 1))
          (1): RMSNorm()
        )
      )
      (3): Sequential(
        (0): Rearrange('b c (h p1) (w p2) -> b (c p1 p2) h w', p1=2, p2=2)
        (1): Conv2d(256, 128, kernel_size=(1, 1), stride=(1, 1))
      )
    )
    (2): ModuleList(
      (0-1): 2 x ResnetBlock(
        (mlp): Sequential(
          (0): SiLU()
          (1): Linear(in_features=256, out_features=256, bias=True)
        )
        (block1): Block(
          (proj): Conv2d(128, 128, kernel_size=(3, 3), stride=(1, 1), padding=(1, 1))
          (norm): RMSNorm()
          (act): SiLU()
          (dropout): Dropout(p=0.0, inplace=False)
        )
        (block2): Block(
          (proj): Conv2d(128, 128, kernel_size=(3, 3), stride=(1, 1), padding=(1, 1))
          (norm): RMSNorm()
          (act): SiLU()
          (dropout): Dropout(p=0.0, inplace=False)
        )
        (res_conv): Identity()
      )
      (2): LinearAttention(
        (norm): RMSNorm()
        (to_qkv): Conv2d(128, 384, kernel_size=(1, 1), stride=(1, 1), bias=False)
        (to_out): Sequential(
          (0): Conv2d(128, 128, kernel_size=(1, 1), stride=(1, 1))
          (1): RMSNorm()
        )
      )
      (3): Sequential(
        (0): Rearrange('b c (h p1) (w p2) -> b (c p1 p2) h w', p1=2, p2=2)
        (1): Conv2d(512, 256, kernel_size=(1, 1), stride=(1, 1))
      )
    )
    (3): ModuleList(
      (0-1): 2 x ResnetBlock(
        (mlp): Sequential(
          (0): SiLU()
          (1): Linear(in_features=256, out_features=512, bias=True)
        )
        (block1): Block(
          (proj): Conv2d(256, 256, kernel_size=(3, 3), stride=(1, 1), padding=(1, 1))
          (norm): RMSNorm()
          (act): SiLU()
          (dropout): Dropout(p=0.0, inplace=False)
        )
        (block2): Block(
          (proj): Conv2d(256, 256, kernel_size=(3, 3), stride=(1, 1), padding=(1, 1))
          (norm): RMSNorm()
          (act): SiLU()
          (dropout): Dropout(p=0.0, inplace=False)
        )
        (res_conv): Identity()
      )
      (2): Attention(
        (norm): RMSNorm()
        (attend): Attend(
          (attn_dropout): Dropout(p=0.0, inplace=False)
        )
        (to_qkv): Conv2d(256, 384, kernel_size=(1, 1), stride=(1, 1), bias=False)
        (to_out): Conv2d(128, 256, kernel_size=(1, 1), stride=(1, 1))
      )
      (3): Conv2d(256, 512, kernel_size=(3, 3), stride=(1, 1), padding=(1, 1))
    )
  )
  (ups): ModuleList(
    (0): ModuleList(
      (0-1): 2 x ResnetBlock(
        (mlp): Sequential(
          (0): SiLU()
          (1): Linear(in_features=256, out_features=1024, bias=True)
        )
        (block1): Block(
          (proj): Conv2d(768, 512, kernel_size=(3, 3), stride=(1, 1), padding=(1, 1))
          (norm): RMSNorm()
          (act): SiLU()
          (dropout): Dropout(p=0.0, inplace=False)
        )
        (block2): Block(
          (proj): Conv2d(512, 512, kernel_size=(3, 3), stride=(1, 1), padding=(1, 1))
          (norm): RMSNorm()
          (act): SiLU()
          (dropout): Dropout(p=0.0, inplace=False)
        )
        (res_conv): Conv2d(768, 512, kernel_size=(1, 1), stride=(1, 1))
      )
      (2): Attention(
        (norm): RMSNorm()
        (attend): Attend(
          (attn_dropout): Dropout(p=0.0, inplace=False)
        )
        (to_qkv): Conv2d(512, 384, kernel_size=(1, 1), stride=(1, 1), bias=False)
        (to_out): Conv2d(128, 512, kernel_size=(1, 1), stride=(1, 1))
      )
      (3): Sequential(
        (0): Upsample(scale_factor=2.0, mode='nearest')
        (1): Conv2d(512, 256, kernel_size=(3, 3), stride=(1, 1), padding=(1, 1))
      )
    )
    (1): ModuleList(
      (0-1): 2 x ResnetBlock(
        (mlp): Sequential(
          (0): SiLU()
          (1): Linear(in_features=256, out_features=512, bias=True)
        )
        (block1): Block(
          (proj): Conv2d(384, 256, kernel_size=(3, 3), stride=(1, 1), padding=(1, 1))
          (norm): RMSNorm()
          (act): SiLU()
          (dropout): Dropout(p=0.0, inplace=False)
        )
        (block2): Block(
          (proj): Conv2d(256, 256, kernel_size=(3, 3), stride=(1, 1), padding=(1, 1))
          (norm): RMSNorm()
          (act): SiLU()
          (dropout): Dropout(p=0.0, inplace=False)
        )
        (res_conv): Conv2d(384, 256, kernel_size=(1, 1), stride=(1, 1))
      )
      (2): LinearAttention(
        (norm): RMSNorm()
        (to_qkv): Conv2d(256, 384, kernel_size=(1, 1), stride=(1, 1), bias=False)
        (to_out): Sequential(
          (0): Conv2d(128, 256, kernel_size=(1, 1), stride=(1, 1))
          (1): RMSNorm()
        )
      )
      (3): Sequential(
        (0): Upsample(scale_factor=2.0, mode='nearest')
        (1): Conv2d(256, 128, kernel_size=(3, 3), stride=(1, 1), padding=(1, 1))
      )
    )
    (2): ModuleList(
      (0-1): 2 x ResnetBlock(
        (mlp): Sequential(
          (0): SiLU()
          (1): Linear(in_features=256, out_features=256, bias=True)
        )
        (block1): Block(
          (proj): Conv2d(192, 128, kernel_size=(3, 3), stride=(1, 1), padding=(1, 1))
          (norm): RMSNorm()
          (act): SiLU()
          (dropout): Dropout(p=0.0, inplace=False)
        )
        (block2): Block(
          (proj): Conv2d(128, 128, kernel_size=(3, 3), stride=(1, 1), padding=(1, 1))
          (norm): RMSNorm()
          (act): SiLU()
          (dropout): Dropout(p=0.0, inplace=False)
        )
        (res_conv): Conv2d(192, 128, kernel_size=(1, 1), stride=(1, 1))
      )
      (2): LinearAttention(
        (norm): RMSNorm()
        (to_qkv): Conv2d(128, 384, kernel_size=(1, 1), stride=(1, 1), bias=False)
        (to_out): Sequential(
          (0): Conv2d(128, 128, kernel_size=(1, 1), stride=(1, 1))
          (1): RMSNorm()
        )
      )
      (3): Sequential(
        (0): Upsample(scale_factor=2.0, mode='nearest')
        (1): Conv2d(128, 64, kernel_size=(3, 3), stride=(1, 1), padding=(1, 1))
      )
    )
    (3): ModuleList(
      (0-1): 2 x ResnetBlock(
        (mlp): Sequential(
          (0): SiLU()
          (1): Linear(in_features=256, out_features=128, bias=True)
        )
        (block1): Block(
          (proj): Conv2d(128, 64, kernel_size=(3, 3), stride=(1, 1), padding=(1, 1))
          (norm): RMSNorm()
          (act): SiLU()
          (dropout): Dropout(p=0.0, inplace=False)
        )
        (block2): Block(
          (proj): Conv2d(64, 64, kernel_size=(3, 3), stride=(1, 1), padding=(1, 1))
          (norm): RMSNorm()
          (act): SiLU()
          (dropout): Dropout(p=0.0, inplace=False)
        )
        (res_conv): Conv2d(128, 64, kernel_size=(1, 1), stride=(1, 1))
      )
      (2): LinearAttention(
        (norm): RMSNorm()
        (to_qkv): Conv2d(64, 384, kernel_size=(1, 1), stride=(1, 1), bias=False)
        (to_out): Sequential(
          (0): Conv2d(128, 64, kernel_size=(1, 1), stride=(1, 1))
          (1): RMSNorm()
        )
      )
      (3): Conv2d(64, 64, kernel_size=(3, 3), stride=(1, 1), padding=(1, 1))
    )
  )
  (mid_block1): ResnetBlock(
    (mlp): Sequential(
      (0): SiLU()
      (1): Linear(in_features=256, out_features=1024, bias=True)
    )
    (block1): Block(
      (proj): Conv2d(512, 512, kernel_size=(3, 3), stride=(1, 1), padding=(1, 1))
      (norm): RMSNorm()
      (act): SiLU()
      (dropout): Dropout(p=0.0, inplace=False)
    )
    (block2): Block(
      (proj): Conv2d(512, 512, kernel_size=(3, 3), stride=(1, 1), padding=(1, 1))
      (norm): RMSNorm()
      (act): SiLU()
      (dropout): Dropout(p=0.0, inplace=False)
    )
    (res_conv): Identity()
  )
  (mid_attn): Attention(
    (norm): RMSNorm()
    (attend): Attend(
      (attn_dropout): Dropout(p=0.0, inplace=False)
    )
    (to_qkv): Conv2d(512, 384, kernel_size=(1, 1), stride=(1, 1), bias=False)
    (to_out): Conv2d(128, 512, kernel_size=(1, 1), stride=(1, 1))
  )
  (mid_block2): ResnetBlock(
    (mlp): Sequential(
      (0): SiLU()
      (1): Linear(in_features=256, out_features=1024, bias=True)
    )
    (block1): Block(
      (proj): Conv2d(512, 512, kernel_size=(3, 3), stride=(1, 1), padding=(1, 1))
      (norm): RMSNorm()
      (act): SiLU()
      (dropout): Dropout(p=0.0, inplace=False)
    )
    (block2): Block(
      (proj): Conv2d(512, 512, kernel_size=(3, 3), stride=(1, 1), padding=(1, 1))
      (norm): RMSNorm()
      (act): SiLU()
      (dropout): Dropout(p=0.0, inplace=False)
    )
    (res_conv): Identity()
  )
  (final_res_block): ResnetBlock(
    (mlp): Sequential(
      (0): SiLU()
      (1): Linear(in_features=256, out_features=128, bias=True)
    )
    (block1): Block(
      (proj): Conv2d(128, 64, kernel_size=(3, 3), stride=(1, 1), padding=(1, 1))
      (norm): RMSNorm()
      (act): SiLU()
      (dropout): Dropout(p=0.0, inplace=False)
    )
    (block2): Block(
      (proj): Conv2d(64, 64, kernel_size=(3, 3), stride=(1, 1), padding=(1, 1))
      (norm): RMSNorm()
      (act): SiLU()
      (dropout): Dropout(p=0.0, inplace=False)
    )
    (res_conv): Conv2d(128, 64, kernel_size=(1, 1), stride=(1, 1))
  )
  (final_conv): Conv2d(64, 3, kernel_size=(1, 1), stride=(1, 1))
)
[2024-06-30 19:00:11,800] [INFO] [comm.py:637:init_distributed] cdb=None
[2024-06-30 19:00:11,800] [INFO] [comm.py:668:init_distributed] Initializing TorchBackend in DeepSpeed with backend nccl
1281167
Number of GPUs available: 4
GPU 0: NVIDIA RTX A6000
GPU 1: NVIDIA RTX A6000
GPU 2: NVIDIA RTX A6000
GPU 3: NVIDIA RTX A6000
Unet(
  (init_conv): Conv2d(3, 64, kernel_size=(7, 7), stride=(1, 1), padding=(3, 3))
  (time_mlp): Sequential(
    (0): SinusoidalPosEmb()
    (1): Linear(in_features=64, out_features=256, bias=True)
    (2): GELU(approximate='none')
    (3): Linear(in_features=256, out_features=256, bias=True)
  )
  (downs): ModuleList(
    (0): ModuleList(
      (0-1): 2 x ResnetBlock(
        (mlp): Sequential(
          (0): SiLU()
          (1): Linear(in_features=256, out_features=128, bias=True)
        )
        (block1): Block(
          (proj): Conv2d(64, 64, kernel_size=(3, 3), stride=(1, 1), padding=(1, 1))
          (norm): RMSNorm()
          (act): SiLU()
          (dropout): Dropout(p=0.0, inplace=False)
        )
        (block2): Block(
          (proj): Conv2d(64, 64, kernel_size=(3, 3), stride=(1, 1), padding=(1, 1))
          (norm): RMSNorm()
          (act): SiLU()
          (dropout): Dropout(p=0.0, inplace=False)
        )
        (res_conv): Identity()
      )
      (2): LinearAttention(
        (norm): RMSNorm()
        (to_qkv): Conv2d(64, 384, kernel_size=(1, 1), stride=(1, 1), bias=False)
        (to_out): Sequential(
          (0): Conv2d(128, 64, kernel_size=(1, 1), stride=(1, 1))
          (1): RMSNorm()
        )
      )
      (3): Sequential(
        (0): Rearrange('b c (h p1) (w p2) -> b (c p1 p2) h w', p1=2, p2=2)
        (1): Conv2d(256, 64, kernel_size=(1, 1), stride=(1, 1))
      )
    )
    (1): ModuleList(
      (0-1): 2 x ResnetBlock(
        (mlp): Sequential(
          (0): SiLU()
          (1): Linear(in_features=256, out_features=128, bias=True)
        )
        (block1): Block(
          (proj): Conv2d(64, 64, kernel_size=(3, 3), stride=(1, 1), padding=(1, 1))
          (norm): RMSNorm()
          (act): SiLU()
          (dropout): Dropout(p=0.0, inplace=False)
        )
        (block2): Block(
          (proj): Conv2d(64, 64, kernel_size=(3, 3), stride=(1, 1), padding=(1, 1))
          (norm): RMSNorm()
          (act): SiLU()
          (dropout): Dropout(p=0.0, inplace=False)
        )
        (res_conv): Identity()
      )
      (2): LinearAttention(
        (norm): RMSNorm()
        (to_qkv): Conv2d(64, 384, kernel_size=(1, 1), stride=(1, 1), bias=False)
        (to_out): Sequential(
          (0): Conv2d(128, 64, kernel_size=(1, 1), stride=(1, 1))
          (1): RMSNorm()
        )
      )
      (3): Sequential(
        (0): Rearrange('b c (h p1) (w p2) -> b (c p1 p2) h w', p1=2, p2=2)
        (1): Conv2d(256, 128, kernel_size=(1, 1), stride=(1, 1))
      )
    )
    (2): ModuleList(
      (0-1): 2 x ResnetBlock(
        (mlp): Sequential(
          (0): SiLU()
          (1): Linear(in_features=256, out_features=256, bias=True)
        )
        (block1): Block(
          (proj): Conv2d(128, 128, kernel_size=(3, 3), stride=(1, 1), padding=(1, 1))
          (norm): RMSNorm()
          (act): SiLU()
          (dropout): Dropout(p=0.0, inplace=False)
        )
        (block2): Block(
          (proj): Conv2d(128, 128, kernel_size=(3, 3), stride=(1, 1), padding=(1, 1))
          (norm): RMSNorm()
          (act): SiLU()
          (dropout): Dropout(p=0.0, inplace=False)
        )
        (res_conv): Identity()
      )
      (2): LinearAttention(
        (norm): RMSNorm()
        (to_qkv): Conv2d(128, 384, kernel_size=(1, 1), stride=(1, 1), bias=False)
        (to_out): Sequential(
          (0): Conv2d(128, 128, kernel_size=(1, 1), stride=(1, 1))
          (1): RMSNorm()
        )
      )
      (3): Sequential(
        (0): Rearrange('b c (h p1) (w p2) -> b (c p1 p2) h w', p1=2, p2=2)
        (1): Conv2d(512, 256, kernel_size=(1, 1), stride=(1, 1))
      )
    )
    (3): ModuleList(
      (0-1): 2 x ResnetBlock(
        (mlp): Sequential(
          (0): SiLU()
          (1): Linear(in_features=256, out_features=512, bias=True)
        )
        (block1): Block(
          (proj): Conv2d(256, 256, kernel_size=(3, 3), stride=(1, 1), padding=(1, 1))
          (norm): RMSNorm()
          (act): SiLU()
          (dropout): Dropout(p=0.0, inplace=False)
        )
        (block2): Block(
          (proj): Conv2d(256, 256, kernel_size=(3, 3), stride=(1, 1), padding=(1, 1))
          (norm): RMSNorm()
          (act): SiLU()
          (dropout): Dropout(p=0.0, inplace=False)
        )
        (res_conv): Identity()
      )
      (2): Attention(
        (norm): RMSNorm()
        (attend): Attend(
          (attn_dropout): Dropout(p=0.0, inplace=False)
        )
        (to_qkv): Conv2d(256, 384, kernel_size=(1, 1), stride=(1, 1), bias=False)
        (to_out): Conv2d(128, 256, kernel_size=(1, 1), stride=(1, 1))
      )
      (3): Conv2d(256, 512, kernel_size=(3, 3), stride=(1, 1), padding=(1, 1))
    )
  )
  (ups): ModuleList(
    (0): ModuleList(
      (0-1): 2 x ResnetBlock(
        (mlp): Sequential(
          (0): SiLU()
          (1): Linear(in_features=256, out_features=1024, bias=True)
        )
        (block1): Block(
          (proj): Conv2d(768, 512, kernel_size=(3, 3), stride=(1, 1), padding=(1, 1))
          (norm): RMSNorm()
          (act): SiLU()
          (dropout): Dropout(p=0.0, inplace=False)
        )
        (block2): Block(
          (proj): Conv2d(512, 512, kernel_size=(3, 3), stride=(1, 1), padding=(1, 1))
          (norm): RMSNorm()
          (act): SiLU()
          (dropout): Dropout(p=0.0, inplace=False)
        )
        (res_conv): Conv2d(768, 512, kernel_size=(1, 1), stride=(1, 1))
      )
      (2): Attention(
        (norm): RMSNorm()
        (attend): Attend(
          (attn_dropout): Dropout(p=0.0, inplace=False)
        )
        (to_qkv): Conv2d(512, 384, kernel_size=(1, 1), stride=(1, 1), bias=False)
        (to_out): Conv2d(128, 512, kernel_size=(1, 1), stride=(1, 1))
      )
      (3): Sequential(
        (0): Upsample(scale_factor=2.0, mode='nearest')
        (1): Conv2d(512, 256, kernel_size=(3, 3), stride=(1, 1), padding=(1, 1))
      )
    )
    (1): ModuleList(
      (0-1): 2 x ResnetBlock(
        (mlp): Sequential(
          (0): SiLU()
          (1): Linear(in_features=256, out_features=512, bias=True)
        )
        (block1): Block(
          (proj): Conv2d(384, 256, kernel_size=(3, 3), stride=(1, 1), padding=(1, 1))
          (norm): RMSNorm()
          (act): SiLU()
          (dropout): Dropout(p=0.0, inplace=False)
        )
        (block2): Block(
          (proj): Conv2d(256, 256, kernel_size=(3, 3), stride=(1, 1), padding=(1, 1))
          (norm): RMSNorm()
          (act): SiLU()
          (dropout): Dropout(p=0.0, inplace=False)
        )
        (res_conv): Conv2d(384, 256, kernel_size=(1, 1), stride=(1, 1))
      )
      (2): LinearAttention(
        (norm): RMSNorm()
        (to_qkv): Conv2d(256, 384, kernel_size=(1, 1), stride=(1, 1), bias=False)
        (to_out): Sequential(
          (0): Conv2d(128, 256, kernel_size=(1, 1), stride=(1, 1))
          (1): RMSNorm()
        )
      )
      (3): Sequential(
        (0): Upsample(scale_factor=2.0, mode='nearest')
        (1): Conv2d(256, 128, kernel_size=(3, 3), stride=(1, 1), padding=(1, 1))
      )
    )
    (2): ModuleList(
      (0-1): 2 x ResnetBlock(
        (mlp): Sequential(
          (0): SiLU()
          (1): Linear(in_features=256, out_features=256, bias=True)
        )
        (block1): Block(
          (proj): Conv2d(192, 128, kernel_size=(3, 3), stride=(1, 1), padding=(1, 1))
          (norm): RMSNorm()
          (act): SiLU()
          (dropout): Dropout(p=0.0, inplace=False)
        )
        (block2): Block(
          (proj): Conv2d(128, 128, kernel_size=(3, 3), stride=(1, 1), padding=(1, 1))
          (norm): RMSNorm()
          (act): SiLU()
          (dropout): Dropout(p=0.0, inplace=False)
        )
        (res_conv): Conv2d(192, 128, kernel_size=(1, 1), stride=(1, 1))
      )
      (2): LinearAttention(
        (norm): RMSNorm()
        (to_qkv): Conv2d(128, 384, kernel_size=(1, 1), stride=(1, 1), bias=False)
        (to_out): Sequential(
          (0): Conv2d(128, 128, kernel_size=(1, 1), stride=(1, 1))
          (1): RMSNorm()
        )
      )
      (3): Sequential(
        (0): Upsample(scale_factor=2.0, mode='nearest')
        (1): Conv2d(128, 64, kernel_size=(3, 3), stride=(1, 1), padding=(1, 1))
      )
    )
    (3): ModuleList(
      (0-1): 2 x ResnetBlock(
        (mlp): Sequential(
          (0): SiLU()
          (1): Linear(in_features=256, out_features=128, bias=True)
        )
        (block1): Block(
          (proj): Conv2d(128, 64, kernel_size=(3, 3), stride=(1, 1), padding=(1, 1))
          (norm): RMSNorm()
          (act): SiLU()
          (dropout): Dropout(p=0.0, inplace=False)
        )
        (block2): Block(
          (proj): Conv2d(64, 64, kernel_size=(3, 3), stride=(1, 1), padding=(1, 1))
          (norm): RMSNorm()
          (act): SiLU()
          (dropout): Dropout(p=0.0, inplace=False)
        )
        (res_conv): Conv2d(128, 64, kernel_size=(1, 1), stride=(1, 1))
      )
      (2): LinearAttention(
        (norm): RMSNorm()
        (to_qkv): Conv2d(64, 384, kernel_size=(1, 1), stride=(1, 1), bias=False)
        (to_out): Sequential(
          (0): Conv2d(128, 64, kernel_size=(1, 1), stride=(1, 1))
          (1): RMSNorm()
        )
      )
      (3): Conv2d(64, 64, kernel_size=(3, 3), stride=(1, 1), padding=(1, 1))
    )
  )
  (mid_block1): ResnetBlock(
    (mlp): Sequential(
      (0): SiLU()
      (1): Linear(in_features=256, out_features=1024, bias=True)
    )
    (block1): Block(
      (proj): Conv2d(512, 512, kernel_size=(3, 3), stride=(1, 1), padding=(1, 1))
      (norm): RMSNorm()
      (act): SiLU()
      (dropout): Dropout(p=0.0, inplace=False)
    )
    (block2): Block(
      (proj): Conv2d(512, 512, kernel_size=(3, 3), stride=(1, 1), padding=(1, 1))
      (norm): RMSNorm()
      (act): SiLU()
      (dropout): Dropout(p=0.0, inplace=False)
    )
    (res_conv): Identity()
  )
  (mid_attn): Attention(
    (norm): RMSNorm()
    (attend): Attend(
      (attn_dropout): Dropout(p=0.0, inplace=False)
    )
    (to_qkv): Conv2d(512, 384, kernel_size=(1, 1), stride=(1, 1), bias=False)
    (to_out): Conv2d(128, 512, kernel_size=(1, 1), stride=(1, 1))
  )
  (mid_block2): ResnetBlock(
    (mlp): Sequential(
      (0): SiLU()
      (1): Linear(in_features=256, out_features=1024, bias=True)
    )
    (block1): Block(
      (proj): Conv2d(512, 512, kernel_size=(3, 3), stride=(1, 1), padding=(1, 1))
      (norm): RMSNorm()
      (act): SiLU()
      (dropout): Dropout(p=0.0, inplace=False)
    )
    (block2): Block(
      (proj): Conv2d(512, 512, kernel_size=(3, 3), stride=(1, 1), padding=(1, 1))
      (norm): RMSNorm()
      (act): SiLU()
      (dropout): Dropout(p=0.0, inplace=False)
    )
    (res_conv): Identity()
  )
  (final_res_block): ResnetBlock(
    (mlp): Sequential(
      (0): SiLU()
      (1): Linear(in_features=256, out_features=128, bias=True)
    )
    (block1): Block(
      (proj): Conv2d(128, 64, kernel_size=(3, 3), stride=(1, 1), padding=(1, 1))
      (norm): RMSNorm()
      (act): SiLU()
      (dropout): Dropout(p=0.0, inplace=False)
    )
    (block2): Block(
      (proj): Conv2d(64, 64, kernel_size=(3, 3), stride=(1, 1), padding=(1, 1))
      (norm): RMSNorm()
      (act): SiLU()
      (dropout): Dropout(p=0.0, inplace=False)
    )
    (res_conv): Conv2d(128, 64, kernel_size=(1, 1), stride=(1, 1))
  )
  (final_conv): Conv2d(64, 3, kernel_size=(1, 1), stride=(1, 1))
)
[2024-06-30 19:00:11,961] [INFO] [comm.py:637:init_distributed] cdb=None
Unet(
  (init_conv): Conv2d(3, 64, kernel_size=(7, 7), stride=(1, 1), padding=(3, 3))
  (time_mlp): Sequential(
    (0): SinusoidalPosEmb()
    (1): Linear(in_features=64, out_features=256, bias=True)
    (2): GELU(approximate='none')
    (3): Linear(in_features=256, out_features=256, bias=True)
  )
  (downs): ModuleList(
    (0): ModuleList(
      (0-1): 2 x ResnetBlock(
        (mlp): Sequential(
          (0): SiLU()
          (1): Linear(in_features=256, out_features=128, bias=True)
        )
        (block1): Block(
          (proj): Conv2d(64, 64, kernel_size=(3, 3), stride=(1, 1), padding=(1, 1))
          (norm): RMSNorm()
          (act): SiLU()
          (dropout): Dropout(p=0.0, inplace=False)
        )
        (block2): Block(
          (proj): Conv2d(64, 64, kernel_size=(3, 3), stride=(1, 1), padding=(1, 1))
          (norm): RMSNorm()
          (act): SiLU()
          (dropout): Dropout(p=0.0, inplace=False)
        )
        (res_conv): Identity()
      )
      (2): LinearAttention(
        (norm): RMSNorm()
        (to_qkv): Conv2d(64, 384, kernel_size=(1, 1), stride=(1, 1), bias=False)
        (to_out): Sequential(
          (0): Conv2d(128, 64, kernel_size=(1, 1), stride=(1, 1))
          (1): RMSNorm()
        )
      )
      (3): Sequential(
        (0): Rearrange('b c (h p1) (w p2) -> b (c p1 p2) h w', p1=2, p2=2)
        (1): Conv2d(256, 64, kernel_size=(1, 1), stride=(1, 1))
      )
    )
    (1): ModuleList(
      (0-1): 2 x ResnetBlock(
        (mlp): Sequential(
          (0): SiLU()
          (1): Linear(in_features=256, out_features=128, bias=True)
        )
        (block1): Block(
          (proj): Conv2d(64, 64, kernel_size=(3, 3), stride=(1, 1), padding=(1, 1))
          (norm): RMSNorm()
          (act): SiLU()
          (dropout): Dropout(p=0.0, inplace=False)
        )
        (block2): Block(
          (proj): Conv2d(64, 64, kernel_size=(3, 3), stride=(1, 1), padding=(1, 1))
          (norm): RMSNorm()
          (act): SiLU()
          (dropout): Dropout(p=0.0, inplace=False)
        )
        (res_conv): Identity()
      )
      (2): LinearAttention(
        (norm): RMSNorm()
        (to_qkv): Conv2d(64, 384, kernel_size=(1, 1), stride=(1, 1), bias=False)
        (to_out): Sequential(
          (0): Conv2d(128, 64, kernel_size=(1, 1), stride=(1, 1))
          (1): RMSNorm()
        )
      )
      (3): Sequential(
        (0): Rearrange('b c (h p1) (w p2) -> b (c p1 p2) h w', p1=2, p2=2)
        (1): Conv2d(256, 128, kernel_size=(1, 1), stride=(1, 1))
      )
    )
    (2): ModuleList(
      (0-1): 2 x ResnetBlock(
        (mlp): Sequential(
          (0): SiLU()
          (1): Linear(in_features=256, out_features=256, bias=True)
        )
        (block1): Block(
          (proj): Conv2d(128, 128, kernel_size=(3, 3), stride=(1, 1), padding=(1, 1))
          (norm): RMSNorm()
          (act): SiLU()
          (dropout): Dropout(p=0.0, inplace=False)
        )
        (block2): Block(
          (proj): Conv2d(128, 128, kernel_size=(3, 3), stride=(1, 1), padding=(1, 1))
          (norm): RMSNorm()
          (act): SiLU()
          (dropout): Dropout(p=0.0, inplace=False)
        )
        (res_conv): Identity()
      )
      (2): LinearAttention(
        (norm): RMSNorm()
        (to_qkv): Conv2d(128, 384, kernel_size=(1, 1), stride=(1, 1), bias=False)
        (to_out): Sequential(
          (0): Conv2d(128, 128, kernel_size=(1, 1), stride=(1, 1))
          (1): RMSNorm()
        )
      )
      (3): Sequential(
        (0): Rearrange('b c (h p1) (w p2) -> b (c p1 p2) h w', p1=2, p2=2)
        (1): Conv2d(512, 256, kernel_size=(1, 1), stride=(1, 1))
      )
    )
    (3): ModuleList(
      (0-1): 2 x ResnetBlock(
        (mlp): Sequential(
          (0): SiLU()
          (1): Linear(in_features=256, out_features=512, bias=True)
        )
        (block1): Block(
          (proj): Conv2d(256, 256, kernel_size=(3, 3), stride=(1, 1), padding=(1, 1))
          (norm): RMSNorm()
          (act): SiLU()
          (dropout): Dropout(p=0.0, inplace=False)
        )
        (block2): Block(
          (proj): Conv2d(256, 256, kernel_size=(3, 3), stride=(1, 1), padding=(1, 1))
          (norm): RMSNorm()
          (act): SiLU()
          (dropout): Dropout(p=0.0, inplace=False)
        )
        (res_conv): Identity()
      )
      (2): Attention(
        (norm): RMSNorm()
        (attend): Attend(
          (attn_dropout): Dropout(p=0.0, inplace=False)
        )
        (to_qkv): Conv2d(256, 384, kernel_size=(1, 1), stride=(1, 1), bias=False)
        (to_out): Conv2d(128, 256, kernel_size=(1, 1), stride=(1, 1))
      )
      (3): Conv2d(256, 512, kernel_size=(3, 3), stride=(1, 1), padding=(1, 1))
    )
  )
  (ups): ModuleList(
    (0): ModuleList(
      (0-1): 2 x ResnetBlock(
        (mlp): Sequential(
          (0): SiLU()
          (1): Linear(in_features=256, out_features=1024, bias=True)
        )
        (block1): Block(
          (proj): Conv2d(768, 512, kernel_size=(3, 3), stride=(1, 1), padding=(1, 1))
          (norm): RMSNorm()
          (act): SiLU()
          (dropout): Dropout(p=0.0, inplace=False)
        )
        (block2): Block(
          (proj): Conv2d(512, 512, kernel_size=(3, 3), stride=(1, 1), padding=(1, 1))
          (norm): RMSNorm()
          (act): SiLU()
          (dropout): Dropout(p=0.0, inplace=False)
        )
        (res_conv): Conv2d(768, 512, kernel_size=(1, 1), stride=(1, 1))
      )
      (2): Attention(
        (norm): RMSNorm()
        (attend): Attend(
          (attn_dropout): Dropout(p=0.0, inplace=False)
        )
        (to_qkv): Conv2d(512, 384, kernel_size=(1, 1), stride=(1, 1), bias=False)
        (to_out): Conv2d(128, 512, kernel_size=(1, 1), stride=(1, 1))
      )
      (3): Sequential(
        (0): Upsample(scale_factor=2.0, mode='nearest')
        (1): Conv2d(512, 256, kernel_size=(3, 3), stride=(1, 1), padding=(1, 1))
      )
    )
    (1): ModuleList(
      (0-1): 2 x ResnetBlock(
        (mlp): Sequential(
          (0): SiLU()
          (1): Linear(in_features=256, out_features=512, bias=True)
        )
        (block1): Block(
          (proj): Conv2d(384, 256, kernel_size=(3, 3), stride=(1, 1), padding=(1, 1))
          (norm): RMSNorm()
          (act): SiLU()
          (dropout): Dropout(p=0.0, inplace=False)
        )
        (block2): Block(
          (proj): Conv2d(256, 256, kernel_size=(3, 3), stride=(1, 1), padding=(1, 1))
          (norm): RMSNorm()
          (act): SiLU()
          (dropout): Dropout(p=0.0, inplace=False)
        )
        (res_conv): Conv2d(384, 256, kernel_size=(1, 1), stride=(1, 1))
      )
      (2): LinearAttention(
        (norm): RMSNorm()
        (to_qkv): Conv2d(256, 384, kernel_size=(1, 1), stride=(1, 1), bias=False)
        (to_out): Sequential(
          (0): Conv2d(128, 256, kernel_size=(1, 1), stride=(1, 1))
          (1): RMSNorm()
        )
      )
      (3): Sequential(
        (0): Upsample(scale_factor=2.0, mode='nearest')
        (1): Conv2d(256, 128, kernel_size=(3, 3), stride=(1, 1), padding=(1, 1))
      )
    )
    (2): ModuleList(
      (0-1): 2 x ResnetBlock(
        (mlp): Sequential(
          (0): SiLU()
          (1): Linear(in_features=256, out_features=256, bias=True)
        )
        (block1): Block(
          (proj): Conv2d(192, 128, kernel_size=(3, 3), stride=(1, 1), padding=(1, 1))
          (norm): RMSNorm()
          (act): SiLU()
          (dropout): Dropout(p=0.0, inplace=False)
        )
        (block2): Block(
          (proj): Conv2d(128, 128, kernel_size=(3, 3), stride=(1, 1), padding=(1, 1))
          (norm): RMSNorm()
          (act): SiLU()
          (dropout): Dropout(p=0.0, inplace=False)
        )
        (res_conv): Conv2d(192, 128, kernel_size=(1, 1), stride=(1, 1))
      )
      (2): LinearAttention(
        (norm): RMSNorm()
        (to_qkv): Conv2d(128, 384, kernel_size=(1, 1), stride=(1, 1), bias=False)
        (to_out): Sequential(
          (0): Conv2d(128, 128, kernel_size=(1, 1), stride=(1, 1))
          (1): RMSNorm()
        )
      )
      (3): Sequential(
        (0): Upsample(scale_factor=2.0, mode='nearest')
        (1): Conv2d(128, 64, kernel_size=(3, 3), stride=(1, 1), padding=(1, 1))
      )
    )
    (3): ModuleList(
      (0-1): 2 x ResnetBlock(
        (mlp): Sequential(
          (0): SiLU()
          (1): Linear(in_features=256, out_features=128, bias=True)
        )
        (block1): Block(
          (proj): Conv2d(128, 64, kernel_size=(3, 3), stride=(1, 1), padding=(1, 1))
          (norm): RMSNorm()
          (act): SiLU()
          (dropout): Dropout(p=0.0, inplace=False)
        )
        (block2): Block(
          (proj): Conv2d(64, 64, kernel_size=(3, 3), stride=(1, 1), padding=(1, 1))
          (norm): RMSNorm()
          (act): SiLU()
          (dropout): Dropout(p=0.0, inplace=False)
        )
        (res_conv): Conv2d(128, 64, kernel_size=(1, 1), stride=(1, 1))
      )
      (2): LinearAttention(
        (norm): RMSNorm()
        (to_qkv): Conv2d(64, 384, kernel_size=(1, 1), stride=(1, 1), bias=False)
        (to_out): Sequential(
          (0): Conv2d(128, 64, kernel_size=(1, 1), stride=(1, 1))
          (1): RMSNorm()
        )
      )
      (3): Conv2d(64, 64, kernel_size=(3, 3), stride=(1, 1), padding=(1, 1))
    )
  )
  (mid_block1): ResnetBlock(
    (mlp): Sequential(
      (0): SiLU()
      (1): Linear(in_features=256, out_features=1024, bias=True)
    )
    (block1): Block(
      (proj): Conv2d(512, 512, kernel_size=(3, 3), stride=(1, 1), padding=(1, 1))
      (norm): RMSNorm()
      (act): SiLU()
      (dropout): Dropout(p=0.0, inplace=False)
    )
    (block2): Block(
      (proj): Conv2d(512, 512, kernel_size=(3, 3), stride=(1, 1), padding=(1, 1))
      (norm): RMSNorm()
      (act): SiLU()
      (dropout): Dropout(p=0.0, inplace=False)
    )
    (res_conv): Identity()
  )
  (mid_attn): Attention(
    (norm): RMSNorm()
    (attend): Attend(
      (attn_dropout): Dropout(p=0.0, inplace=False)
    )
    (to_qkv): Conv2d(512, 384, kernel_size=(1, 1), stride=(1, 1), bias=False)
    (to_out): Conv2d(128, 512, kernel_size=(1, 1), stride=(1, 1))
  )
  (mid_block2): ResnetBlock(
    (mlp): Sequential(
      (0): SiLU()
      (1): Linear(in_features=256, out_features=1024, bias=True)
    )
    (block1): Block(
      (proj): Conv2d(512, 512, kernel_size=(3, 3), stride=(1, 1), padding=(1, 1))
      (norm): RMSNorm()
      (act): SiLU()
      (dropout): Dropout(p=0.0, inplace=False)
    )
    (block2): Block(
      (proj): Conv2d(512, 512, kernel_size=(3, 3), stride=(1, 1), padding=(1, 1))
      (norm): RMSNorm()
      (act): SiLU()
      (dropout): Dropout(p=0.0, inplace=False)
    )
    (res_conv): Identity()
  )
  (final_res_block): ResnetBlock(
    (mlp): Sequential(
      (0): SiLU()
      (1): Linear(in_features=256, out_features=128, bias=True)
    )
    (block1): Block(
      (proj): Conv2d(128, 64, kernel_size=(3, 3), stride=(1, 1), padding=(1, 1))
      (norm): RMSNorm()
      (act): SiLU()
      (dropout): Dropout(p=0.0, inplace=False)
    )
    (block2): Block(
      (proj): Conv2d(64, 64, kernel_size=(3, 3), stride=(1, 1), padding=(1, 1))
      (norm): RMSNorm()
      (act): SiLU()
      (dropout): Dropout(p=0.0, inplace=False)
    )
    (res_conv): Conv2d(128, 64, kernel_size=(1, 1), stride=(1, 1))
  )
  (final_conv): Conv2d(64, 3, kernel_size=(1, 1), stride=(1, 1))
)
[2024-06-30 19:00:12,063] [INFO] [comm.py:637:init_distributed] cdb=None
/home/cyoonjun/miniconda3/envs/tutorial/lib/python3.9/site-packages/accelerate/accelerator.py:444: FutureWarning: Passing the following arguments to `Accelerator` is deprecated and will be removed in version 1.0 of Accelerate: dict_keys(['split_batches']). Please pass an `accelerate.DataLoaderConfiguration` instead: 
…
